model/lingclusive_model.pth (torch, 69804 bytes, 6 tensors)

fc1.weight f4 [128, 63]
000000 cc 0e c1 bb 03 d9 dd 3d 97 11 a6 3d c2 18 03 3d
       -0.0058916565 0.10832407 0.08108824 0.032006033
000010 83 64 5c bc 84 50 e9 bd 68 12 88 bd 6b bb 81 3d
       -0.013451698 -0.1139231 -0.06644136 0.06334575
000020 c9 a2 cc 3c 6d b6 bc bd 66 b3 2d bd b5 77 81 bb
       0.024979966 -0.092144825 -0.042407416 -0.003951038
000030 68 92 28 3d 2f d6 41 3d f3 a6 ba 3d 8a 47 cc 3d
       0.04115525 0.047323402 0.09113874 0.099745825
000040 5e 0f d6 bd 8e a9 81 3d f8 a2 cf 3d 3c 94 1a bd
       -0.1045215 0.06331168 0.10138506 -0.037739024
000050 8f 56 81 3b fc 33 bf bd 67 88 9e 3d 9f 97 8b bd
       0.003947086 -0.09336087 0.077408604 -0.06816029
000060 4e 59 ee bd b5 d9 b9 bd b4 be 87 3b 85 af 39 bd
       -0.11638127 -0.090747274 0.0041426066 -0.045333404
000070 db 87 98 bd f3 f8 f1 bc c7 54 83 3d b1 67 a1 3c
       -0.074477874 -0.029537654 0.06412654 0.019702764
000080 19 e1 a8 bd b2 ed aa bc 98 d3 ad bd 01 cb e8 3d
       -0.08246059 -0.020865295 -0.08487624 0.11366845
000090 bd bb cd 3d b2 8e 84 3d 73 22 91 bc 49 00 a9 bd
       0.10045574 0.064725295 -0.017716622 -0.082520075
0000a0 39 00 c3 3d ee a1 eb bd 34 3d ae bd d0 dc a8 bd
       0.09521527 -0.11505495 -0.08507767 -0.08245242
0000b0 7d b3 89 3d 86 1c 90 ba 7c 8e 90 bd 68 63 73 bc
       0.06723688 -0.0010994829 -0.07058427 -0.014855243
0000c0 40 47 00 3e 0f 73 45 bd 7b 10 f0 bd f3 28 dd bd
       0.1252718 -0.04820543 -0.117218934 -0.10798826
0000d0 ad dd 34 3d 24 c3 a6 3d dc 12 09 3e 60 9f a9 bc
       0.04415672 0.08142689 0.133861 -0.020705879
0000e0 1c 01 04 3e 72 ec 07 3e 87 49 be bd fe 6c 93 3d
       0.12891048 0.1327379 -0.09291368 0.07198523
0000f0 49 a0 a0 bd a4 4d 9c 3d 41 02 87 3d 40 b7 2e bc
       -0.07843072 0.07631996 0.06592227 -0.010663807
000100 f2 bf 59 bd 28 e5 c8 3c 60 8b 96 bb 24 c0 67 3d
       -0.05316157 0.024523333 -0.0045942515 0.056579724
000110 60 9e 91 3c 0c c2 1c bd d8 a8 59 bd a6 a9 e3 bd
       0.017775714 -0.038270995 -0.053139538 -0.11116342
000120 e6 7e 83 3d b6 97 8d bd c0 7d 49 3c 84 61 61 3d
       0.06420688 -0.06913702 0.012298048 0.05502464
000130 5e 1e ce bd 42 24 fc bd c0 ba 74 3b 43 8b ff bd
       -0.10064386 -0.12311603 0.0037342757 -0.12477734
000140 7c 10 9b 3d c2 c9 e0 bd d2 bb d5 bd 0a c8 0d bd
       0.075715035 -0.10975982 -0.104362145 -0.0346146
000150 8e 2e 53 bd 78 1b b4 3d 87 15 86 bd 60 2f 8a 3b
       -0.05155807 0.08794302 -0.06547075 0.0042170733
000160 80 c1 e2 3a 8a 88 c7 3d 44 9d 51 3d cc b6 20 3d
       0.0017300099 0.0974284 0.05117537 0.03923683
000170 26 eb 91 bd 09 7b 93 bd 3c 57 b8 bd 78 1b 45 bc
       -0.07124929 -0.072012015 -0.09001014 -0.012030475
000180 e4 20 5e 3d a6 56 4b bd 87 3b db bd f2 73 be bd
       0.054230586 -0.04964318 -0.10704713 -0.092994586
000190 cc ba a2 bc 24 98 ce 3d 6a 07 00 be 90 f2 91 3c
       -0.019864462 0.10087612 -0.12502828 0.017815858
0001a0 9a de a5 3d b0 53 0f 3c 60 89 d4 bc a0 f2 24 3d
       0.080990985 0.00874798 -0.025944412 0.040270448
0001b0 2e d7 ec 3d ea 1c 8a 3d 70 43 99 3d 52 7c cb 3d
       0.1156448 0.06743796 0.07483566 0.099358216
0001c0 04 45 05 3d 54 18 3f 3d 40 81 bc 3b a0 c5 78 3c
       0.03253652 0.04665406 0.0057527125 0.015183836
0001d0 84 4b 5d bd 58 11 db bd fb aa e4 bd d8 79 69 bc
       -0.054027095 -0.106966674 -0.111654244 -0.014250241
0001e0 18 87 c3 3c d4 00 20 3d b6 6d 91 bd 82 09 18 bd
       0.023868129 0.03906329 -0.07101004 -0.037118442
0001f0 ec 95 17 3d 20 98 44 3d a9 09 01 be eb 2f 23 be
       0.03700821 0.04799664 -0.12601341 -0.15936248
000200 eb d6 32 bd 98 fa 47 3d 3a 8f 57 bb b2 6c 07 3e
       -0.043661993 0.04882297 -0.0032891766 0.13225058
000210 23 02 04 bc 68 d1 a6 3d b6 67 0c 3e 06 7e ac 3c
       -0.00805715 0.0814541 0.13711438 0.021056186
000220 26 71 ef 3d ad a2 d2 3c 3e 6e 01 3e 6d 7c 09 3e
       0.11691503 0.025712335 0.1263971 0.13426371
000230 9b 9d 23 3e 31 08 39 3e b6 84 40 3d c7 9f 22 3e
       0.1597809 0.18069531 0.047001563 0.15881263
000240 3e b3 20 3e 44 80 40 3e e0 55 45 bd 8b 0c 80 be
       0.15693375 0.1879893 -0.0481776 -0.2500957
000250 5b 7a a4 3b 3c bd 4b bd 2b 82 c4 bd 2a eb 33 bd
       0.0050194687 -0.049741015 -0.0959514 -0.04392544
000260 da 4a 57 3c 56 ea 99 3d 71 29 ba 3d ff 9a 24 3e
       0.013140405 0.07515399 0.090899356 0.16074751
000270 e2 63 d2 bd b0 89 19 bd ac 34 12 bd 06 b2 3c bd
       -0.102729574 -0.037484825 -0.035694763 -0.046068214
000280 68 9f aa 3d 94 25 eb bd bd 8c 0d 3c 63 76 bf bd
       0.083311856 -0.11481777 0.008639512 -0.09348752
000290 8b 84 4d 3b eb 80 2b be c3 06 04 be f8 e2 5f be
       0.003135952 -0.16748397 -0.12893204 -0.21863925
0002a0 a8 db de 3c d0 4e ac bd c1 1e 52 be 2b c2 0f be
       0.02720435 -0.0841347 -0.20519544 -0.14038913
0002b0 93 55 e2 bd c1 ba 96 bd 3e 1c 0f 3e 09 66 5c 3e
       -0.11051478 -0.07359839 0.13975617 0.21523298
0002c0 b5 34 91 3d d5 dd 84 bd f1 0a 46 3e 2d c0 a1 3d
       0.07090131 -0.064876236 0.19340111 0.07897983
0002d0 8d 47 1d 3e 65 3c 91 3d 16 79 17 3e 92 27 19 3d
       0.15359326 0.070915975 0.14792284 0.037391253
0002e0 75 40 6f be fc a9 14 3d 79 88 e3 bc 2b f4 25 be
       -0.23364432 0.036294922 -0.027775036 -0.16206424
0002f0 06 1e 63 bd 7c 10 7a 3e 69 06 0e 3e 32 12 57 3d
       -0.055448554 0.24420351 0.13869633 0.052507587
000300 5c f6 9b 3e 00 6c c3 3e 70 37 99 3d f7 33 ec 3d
       0.30461395 0.38168335 0.07481277 0.11533349
000310 c5 fd e5 bd 8c 41 96 3d 4e 22 a6 3d 8e 4f 8f bc
       -0.11230043 0.07336721 0.08112012 -0.01749399
000320 c7 4c 12 bd 80 a8 b9 3d 86 ae d8 3c 47 de 8a 3d
       -0.03571775 0.09065342 0.026450407 0.06780677
000330 84 24 0d be 78 0c bf bd 03 69 56 3d b2 9a 39 be
       -0.13783461 -0.0932855 0.05234624 -0.18125418
000340 d7 57 86 be 54 c7 ca be 19 28 41 3d 72 eb 62 3d
       -0.2623889 -0.396052 0.04715738 0.05540032
000350 f5 e3 03 be 64 53 f7 bd 66 1c 04 bc 45 de 48 bc
       -0.12879927 -0.120764524 -0.008063411 -0.012260024
000360 96 7d ee bd 24 5f 04 be 70 cc 32 bd 1a ea e9 3d
       -0.11645047 -0.12926918 -0.043651998 0.114216045
000370 7d a2 a7 3a c6 a8 1c be d8 40 e2 bb e1 e2 e5 bc
       0.0012789514 -0.15298757 -0.0069047026 -0.028062286
000380 b1 64 98 3d 7f 7f a9 bc ae 0a 1c be af 7a 96 3c
       0.0744108 -0.020690678 -0.15238449 0.018369047
000390 08 db f1 3d d5 c0 9c bc f8 2f 37 be 49 b1 c9 bd
       0.11809355 -0.019134918 -0.17889392 -0.098482676
0003a0 92 7e c5 3d e0 c6 ea bb 8d 07 b9 3d af c2 10 bc
       0.09643282 -0.007164821 0.09034643 -0.008835479
0003b0 b2 e5 57 3d 8e a5 72 bc 1b 2a 99 bd a3 0e 1f be
       0.05270929 -0.014809979 -0.07478734 -0.15532927
0003c0 34 86 88 bd 6c 6e b3 3c 09 a0 39 be 3e 5f 37 be
       -0.06666222 0.02190324 -0.18127455 -0.17907426
0003d0 f3 f0 08 bd 1c 0d f9 3d af 0d 6e bc 28 5e 1c be
       -0.033432912 0.121607035 -0.01452963 -0.15270293
0003e0 18 dc 9b be 4c 6b 02 be c9 2d 1f be 4d 19 9a be
       -0.30441356 -0.12736243 -0.1554481 -0.30097428
0003f0 a0 98 15 3e 86 9e cc 3c 44 e3 93 bd 96 9a 54 bd
       0.14609003 0.024977934 -0.07221082 -0.051905237

fc1.bias f4 [128]
000000 02 61 14 bc 00 59 40 3c a5 43 f2 bc 86 89 24 bc
       -0.009056332 0.011739969 -0.029573271 -0.010042554
000010 6c 61 ea bd 44 44 a1 3d 08 ba 2a 3d 5c ac 00 3e
       -0.11444363 0.07874349 0.04168132 0.1256575
000020 1d ec 55 3d 2a 6c 01 3e 8b 6d 91 bc 6d 90 60 bc
       0.05222713 0.12638918 -0.01775243 -0.013706309
000030 40 2d 0b 3e ba ef d8 bd 35 19 9a bd 71 b3 96 3d
       0.1359148 -0.10592599 -0.07524339 0.073584445
000040 dc 19 3c 3d 23 44 62 3d a4 fc 55 3c 48 96 44 bc
       0.0459231 0.05524076 0.0130607225 -0.0119987205
000050 bc 0a 9d bd b4 50 e5 bd 80 03 f0 ba 15 99 17 be
       -0.07668063 -0.111970335 -0.001831159 -0.1480449
000060 c0 73 26 3d 28 74 c3 bd cf 3d b3 bd 50 eb be 3d
       0.04063773 -0.095436394 -0.087520234 0.09322226
000070 2f eb 02 3c 20 f8 69 3d 4d 19 37 3d c0 96 c0 3d
       0.007990642 0.057121396 0.044701863 0.09403753
000080 ae 36 86 bd 0a 7a b6 bd 80 95 92 3c fd 30 ba 3d
       -0.06553398 -0.08909996 0.017893553 0.09091375
000090 70 49 0d 3c 2b 16 5b 3d 46 c2 7c bd 32 11 00 be
       0.008623466 0.053487938 -0.06170871 -0.1250656
0000a0 b1 df 30 bd e7 e6 d5 bd 53 f1 a7 bd 0a dc 93 bd
       -0.04318208 -0.10444432 -0.08200326 -0.072197035
0000b0 8f 27 f5 bd c4 3b 60 bd 62 3d c8 bd 28 62 55 bd
       -0.11970436 -0.054744497 -0.09777333 -0.052095562
0000c0 5b 59 30 3b 5f 73 3b bd 1f bd 08 be 76 4f c4 bd
       0.0026908729 -0.045764323 -0.13353394 -0.095854685
0000d0 c0 41 8f 3d 3e 90 b2 3d 44 e1 30 3d c4 40 6c 3d
       0.06994963 0.08718918 0.04318358 0.057678953
0000e0 28 b3 60 bd d0 48 8b bd 78 6e 69 bd 3b 44 d0 3d
       -0.054858357 -0.06800997 -0.056990117 0.10169264
0000f0 39 11 de 3d 9e 3a 89 bd 82 31 b0 bd 30 34 b1 3d
       0.10843129 -0.067006335 -0.08603193 0.08652532
000100 4b 47 ff bd 1d ab 8c bd 07 0e fc bd 0f c0 80 bd
       -0.1246477 -0.06868575 -0.12307363 -0.06286632
000110 4a 80 c9 bd c9 26 98 bc a5 a5 01 be cb 2e 9a 3d
       -0.09838922 -0.018573182 -0.12660845 0.07528456
000120 91 35 43 bc b4 ba 02 be 9a 60 00 3e b4 3d 94 3d
       -0.011914627 -0.12766534 0.1253685 0.072383314
000130 4d e8 53 bd 75 88 08 3c 00 7a 34 bc 38 4d 89 3c
       -0.05173521 0.008333315 -0.011015415 0.016760454
000140 0b be 7d bd 0d a7 0a 3d ba 5a 05 3e 2b d6 d2 bd
       -0.061948817 0.03385072 0.1302289 -0.102947555
000150 28 bb a9 3d 08 82 ba 3d 3d 85 4a bd e6 1a 9e 3b
       0.0828765 0.09106833 -0.049443472 0.004824984
000160 ba 1b 62 bd e0 fe 2d bd d0 1f 5a bb a4 84 e7 bc
       -0.055202223 -0.042479396 -0.0033283122 -0.02826149
000170 71 85 e2 bd df ae f9 bd b0 8a 0b bc f6 38 d0 bc
       -0.11060608 -0.12191557 -0.008516952 -0.025417786
000180 39 4c 97 3d de dc 81 3d 21 eb a5 bd 11 b1 8a bd
       0.07387585 0.06340955 -0.08101488 -0.06772054
000190 08 a7 25 bd 55 98 a4 bd 40 b8 d2 bd 77 50 94 bc
       -0.040442497 -0.080368675 -0.10289049 -0.018104775
0001a0 9e 6e a7 bd 3a 61 ae bd d1 ce fe 3a ca 9e c9 3d
       -0.081753954 -0.08514638 0.0019440298 0.0984474
0001b0 24 49 ae bd af ff f3 bd 83 ac 54 bd 1b 55 20 3d
       -0.08510044 -0.11914002 -0.051922332 0.039143663
0001c0 b1 6a 6b 3c be 7d 8b 3d 68 b0 a7 3c 26 7b 01 be
       0.014368699 0.06811093 0.02046986 -0.12644634
0001d0 da 3b ad 3d e6 45 d0 3c 12 1c c4 bd 97 d6 af bd
       0.084586814 0.025423955 -0.095756665 -0.08585852
0001e0 52 28 d5 3c d1 99 3e 3d a0 b2 84 bd b1 c8 8f 3d
       0.026020203 0.04653341 -0.064793825 0.07020701
0001f0 7b 28 03 3e 8d 37 3b 3d 78 49 a7 3d 88 a2 03 3d
       0.12808411 0.045707274 0.0816831 0.032137424

fc2.weight f4 [64, 128]
000000 4d 1c 80 bd be d1 80 bd e5 2f 3a 3e 8a c6 b6 3e
       -0.06255398 -0.06290005 0.18182333 0.35698348
000010 82 8c 8d 3e 56 d2 7f 3d 1f 87 f4 3e f6 79 76 3d
       0.2764626 0.06245645 0.4775934 0.060174905
000020 5c e5 a4 bd 4b 4f 8c 3d 82 a2 a1 bd 3e ec b7 3c
       -0.08051559 0.068510614 -0.07892324 0.022451516
000030 bf 13 42 3e a6 a3 2a 3d 5a c0 5d bd 60 cb b5 3d
       0.18952845 0.041659974 -0.05413852 0.08876681
000040 77 40 98 3d c7 ff cf 3e 41 98 70 bd 18 0d 8d 3c
       0.07434171 0.4062483 -0.05873895 0.017218158
000050 3e 73 4b bd 50 f6 a1 3c 21 8a 13 bd 64 5b d4 bc
       -0.04967045 0.019770771 -0.036020402 -0.025922485
000060 43 ea 81 3d 79 c0 8d bd e4 de 45 bd 34 7e d1 3e
       0.0634351 -0.06921477 -0.04830827 0.40916598
000070 19 d5 31 3d 99 6b 73 3d 91 44 b1 3e 04 93 dd 3c
       0.043416116 0.059428785 0.34622625 0.027047642
000080 2e 82 a0 bd f7 61 01 bd f0 1c 8d bd 70 47 1d bd
       -0.0783733 -0.031587567 -0.06890285 -0.038398206
000090 50 e8 fb 3c b4 23 95 bd 44 6e 8d bd 28 a9 61 bc
       0.030750424 -0.072822005 -0.06905797 -0.01377324
0000a0 0d 26 19 bd 4e 62 08 3d de 86 2a 3e 27 9a fa 3c
       -0.037389804 0.033296876 0.1665301 0.030591084
0000b0 b1 c1 24 bd ce 5b aa bd f7 a5 ad 3d 3d 80 7b be
       -0.04022378 -0.083182916 0.08478921 -0.24560638
0000c0 ea 44 f3 bd c1 b8 d8 3e 14 6d a6 3e 49 1a b4 bd
       -0.11878379 0.42328456 0.32505095 -0.08794076
0000d0 d1 23 e7 3e 01 ed 98 bd a9 f2 50 bd f0 fb 75 3c
       0.45144513 -0.0746708 -0.05101267 0.01501368
0000e0 00 94 5c bd c0 2f 27 bc 7e d9 13 3d 31 c3 c0 bd
       -0.05385208 -0.010204256 0.03609609 -0.0941223
0000f0 51 b4 f5 3e 42 f6 84 3e b0 59 7b bd 4e 4e 0e bd
       0.47989133 0.2596913 -0.06136483 -0.034742646
000100 2e 70 e3 3a c2 3c bb bd 5b a0 08 bb 38 9a c6 3c
       0.0017352158 -0.09142448 -0.0020847532 0.02424346
000110 83 10 4b 3b fa b0 6d 3e 80 06 cd bc fa 50 7b 3e
       0.0030985184 0.23212042 -0.025027514 0.24542609
000120 26 fa 5e 3d 54 19 28 bc aa 2b 74 bd 4c 3d b5 bc
       0.05443778 -0.010259945 -0.059611954 -0.022123955
000130 20 34 67 3e 25 bc b0 3e d8 ee b0 bd f7 b5 82 bd
       0.22578478 0.34518543 -0.08639306 -0.06382363
000140 a0 04 c8 bc 4f a6 04 3e b2 68 8f 3e 06 cb 22 3d
       -0.024416268 0.12954067 0.28009564 0.0397444
000150 10 8a 99 3e 4d d3 cb bc 3a 8d a0 3d 94 f2 ca bc
       0.29988146 -0.02488103 0.07839437 -0.024773873
000160 01 a2 25 3e 26 e9 f4 bc f5 55 0f 3e 4b f8 87 3d
       0.16175081 -0.02989633 0.13997634 0.06639155
000170 e6 07 1d 3d b0 7f e9 3b a0 c6 39 3c 06 14 29 bd
       0.03833761 0.0071258172 0.01133886 -0.04127886
000180 ec dc 54 3e 4e c1 99 3b 67 74 1e bd fb 7c 67 3c
       0.207874 0.004692233 -0.03868523 0.014128919
000190 1e 5d 49 3d 87 f2 5a 3b 08 9e 22 3c 9b f6 93 bb
       0.04916107 0.0033408718 0.009925373 -0.0045154816
0001a0 a3 67 56 bd 60 ff 8a bc 77 53 ae 3d a4 72 d2 3e
       -0.05234493 -0.016967475 0.085120134 0.4110309
0001b0 be d3 88 bd 66 10 7d 3d 0e 20 90 3d b2 76 7c bd
       -0.066810116 0.061783217 0.07037364 -0.061636634
0001c0 2c 23 bf 3e 31 34 c2 3e d4 df b4 3c 80 b6 aa 3a
       0.37331522 0.37930444 0.022079386 0.001302436
0001d0 40 d0 89 bd 83 ad 40 bd bc 6d 47 bc b6 0a 01 bd
       -0.06729174 -0.047040474 -0.012172159 -0.031504355
0001e0 83 5c bd 3e b6 75 30 3e ab 7a 38 bd 4a ec 87 3e
       0.36984643 0.17232403 -0.04503886 0.26547462
0001f0 01 0f 8f 3e 69 42 16 3e 4d 1b 2f 3e 9c 09 dc 3c
       0.27941135 0.14673771 0.17100258 0.02686005
000200 6f ad a9 3c d0 33 9b bb 8f e1 8f 3e 9a 50 14 3d
       0.020712582 -0.004736401 0.28101775 0.03620968
000210 ed c7 cb 3e d0 ed b6 bb 90 87 03 3e 70 db c4 bb
       0.3980097 -0.0055825487 0.12844682 -0.0060076043
000220 d3 21 4a bd 89 08 42 3e ac 3e 1c be bf ed 53 3d
       -0.049348664 0.18948568 -0.15258282 0.051740404
000230 e1 70 33 3e 61 23 85 3d 49 25 11 be 66 f1 fd 3c
       0.17523529 0.065008886 -0.1417438 0.030998897
000240 c9 35 07 be 99 f2 3c 3e f8 25 59 3d 07 9d a8 bd
       -0.13204111 0.18451919 0.053014725 -0.082330756
000250 90 9a 50 bc 48 a7 72 bc 3b 90 ac 3d 2d 2c 22 3d
       -0.012732163 -0.014810391 0.08425947 0.03959291
000260 c7 66 a6 3d f5 38 a6 bd 6f bb ac bd 58 ad 07 3e
       0.08125072 -0.081163324 -0.084341876 0.13249719
000270 e2 1c 06 be ec c1 03 3d 92 28 66 3e 56 92 18 3d
       -0.13096955 0.03216736 0.22476414 0.03724893
000280 b8 95 29 3c 9b 58 ae 3d 04 08 dc bc 58 9c b8 3c
       0.010350637 0.08512994 -0.02685929 0.022535488
000290 f2 4d f7 bc 9b 84 4e bd 47 d5 80 bd a6 21 87 bd
       -0.030188534 -0.05041943 -0.062906794 -0.06598215
0002a0 d2 3b 95 3d 57 d7 2c bd 41 74 11 3e cc f0 23 bd
       0.072868004 -0.04219755 0.14204504 -0.040024564
0002b0 5e c1 7d bd 4a a0 07 bd 12 0c 8a bd 18 dd 8a 3d
       -0.061951987 -0.033111848 -0.067405835 0.067804515
0002c0 07 2f c4 3d 07 ed 51 3e 0a f5 6e 3e 10 f3 3a bd
       0.09579282 0.20500575 0.23335662 -0.04564196
0002d0 d6 13 77 3e 93 15 80 bd b8 ed 44 3c ee 23 6f 3d
       0.2412866 -0.06254115 0.012019567 0.058383875
0002e0 f6 77 6d 3d 48 8e 21 3c 63 26 19 bd 06 69 a8 3d
       0.05797573 0.009860583 -0.037390124 0.08223157
0002f0 85 08 12 3e 1b d2 4e 3e 26 63 b1 bd 86 15 49 3d
       0.14261062 0.20197336 -0.08661489 0.049092792
000300 c4 23 6c 3c 51 4a 33 bd 91 02 e3 bd 3d 6c f3 3d
       0.014412824 -0.043772046 -0.11084474 0.11885879
000310 9c 19 24 be 02 67 12 3e 08 6f 9c bc c9 01 dd 3e
       -0.16025394 0.14297107 -0.019095913 0.43165424
000320 63 e0 4d bd 3b 6e da 3c 52 96 51 3d ad 23 4e bd
       -0.05026282 0.02666389 0.051168747 -0.05032699
000330 4e 6d 7d 3e b6 2c eb 3d 1e c1 2e 3d 33 21 b1 bd
       0.24748728 0.11483137 0.04266464 -0.086489104
000340 7e 7b f5 bc 4d 6d e0 3d db 4d 7c 3d 42 a0 68 3d
       -0.029966112 0.109583475 0.061597686 0.05679346
000350 ee 92 13 3e 31 c1 be bd 02 0b b8 bd a3 35 0c be
       0.14411518 -0.09314192 -0.089864746 -0.13692336
000360 f3 84 b6 3e ac 3f e2 3c cf dd c7 3d 10 26 f3 bb
       0.35648307 0.027618252 0.097591035 -0.007420309
000370 52 11 32 3d 28 6d 03 3d 68 be 48 bc c3 95 1a 3d
       0.04347355 0.03208652 -0.012252428 0.03774048
000380 be 54 27 3e 4f 0a ef 39 a7 fd 88 bd c5 23 90 3c
       0.1634092 0.00045593313 -0.06689005 0.017595181
000390 98 53 05 3c 6c f8 55 bd b2 42 79 3d c2 57 10 bd
       0.008137606 -0.052238867 0.06085462 -0.035239942
0003a0 fe bf 21 3d 11 84 13 bd 8f ce 86 3d 95 40 e1 3d
       0.03948974 -0.03601462 0.06582367 0.10998646
0003b0 02 27 61 be 60 5f af 3c 9c 66 b2 3d 9e 59 a3 bd
       -0.21987537 0.021407783 0.087109774 -0.079760775
0003c0 91 e4 8b 3e 0e 32 59 3e 75 02 81 3d b0 57 bb bd
       0.2732282 0.212105 0.06299297 -0.091475844
0003d0 2e 5e d3 bd 45 d7 7c 3d 9d 8a a1 3d 25 32 a5 be
       -0.10320698 0.061728735 0.078877665 -0.3226482
0003e0 ae cc f6 3d fd 7e 93 3e 78 65 1d bc 73 fa a7 3d
       0.12050758 0.28807822 -0.009606712 0.08202066
0003f0 a7 5e 98 3d eb 5a 92 3e ff 58 bc 3d 7e 87 5f 3d
       0.074399285 0.2858499 0.09196662 0.054572575

fc2.bias f4 [64]
000000 da 14 f0 3d 03 56 14 3d fb 2e 79 3d e7 b7 ab 3d
       0.11722727 0.03621484 0.06083582 0.08384686
000010 be 61 1a 3e cf d3 02 3e 14 a8 8a 3d 00 79 30 3e
       0.15076348 0.12776111 0.067703396 0.17233658
000020 8b 74 65 3d 50 ab f0 3c 0d 5b 2c 3d d7 93 de 3d
       0.056019347 0.029378563 0.04207902 0.10868042
000030 06 9f e1 bc 15 e7 5e 3d c8 17 91 3d 41 88 e2 3d
       -0.027541649 0.054419596 0.07084614 0.110611446
000040 70 21 a9 3d 79 fa 1a bd c2 ce 3f bd 54 fb af 3d
       0.08258331 -0.037836526 -0.04682804 0.08592859
000050 cc 48 bc 3c 3c 86 04 3e 4f 78 94 3d b0 25 74 3b
       0.022983931 0.12941831 0.072495095 0.0037253909
000060 d2 24 11 3e 6b 94 b1 3d 90 0e a5 3d 38 3c 8e 3d
       0.14174202 0.086708866 0.08059418 0.069450796
000070 30 45 03 3e 31 19 83 bb 24 cf 08 3e 5f 0c 42 3d
       0.12819362 -0.004000806 0.13360268 0.04737508
000080 75 51 d3 3d 58 fe 67 3d bb a5 9e 3d d8 92 92 3d
       0.10318271 0.056639045 0.07746454 0.071569145
000090 d9 e1 c3 3d c3 3f e1 3d e7 c7 37 bd 52 db fe ba
       0.095645614 0.1099849 -0.044868376 -0.0019444025
0000a0 52 6d 49 3c a9 d8 62 3d e2 ee 9e b9 6d 93 76 3d
       0.01229413 0.055382404 -0.0003031409 0.06019919
0000b0 0c bb ae 3d 58 f8 4e 3d 0b b0 b9 bd 6e f9 78 3d
       0.0853177 0.050529808 -0.09066781 0.06078475
0000c0 79 e2 ce 3d a7 cf 2e 3d cd 32 bd 3d 4e 4d 25 3e
       0.1010179 0.0426785 0.09238205 0.1614277
0000d0 8c 80 df 3b 78 a9 e1 3d b8 a0 17 bd 1e 64 a0 bc
       0.006820744 0.11018652 -0.037018508 -0.01957899
0000e0 c6 ba bc 3d 1a 20 05 3e 49 09 db 3d 5c 5b 0b 3c
       0.09215312 0.13000527 0.106951304 0.0085056685
0000f0 8b 67 86 3d 5a 54 7a 3d 53 8f 2d 3e ce f1 38 3e
       0.06562718 0.0611156 0.16949205 0.18060991

fc3.weight f4 [5, 64]
000000 af f9 83 ba f1 d2 f1 bd bd 38 5f bd fd 83 27 bc
       -0.0010068918 -0.11807812 -0.05449747 -0.01022434
000010 01 67 db be 36 e6 a3 be e7 5d 89 3e ac cc 5f 3e
       -0.42852023 -0.32011575 0.26829454 0.2185542
000020 90 94 9b be 48 1f be be 6a 5a ef bd f5 12 40 be
       -0.30386782 -0.3713324 -0.11687167 -0.18757232
000030 b1 8c a4 be 75 b6 33 bd 6f 24 76 3e d8 65 17 3e
       -0.3213859 -0.043875176 0.24037336 0.14784944
000040 44 67 c0 bd 05 d0 14 be 27 bc 2a be 23 9c 79 3e
       -0.09394696 -0.14532478 -0.16673337 0.24375968
000050 4b 9a 51 be 9a 4d 6a be f9 33 9d be 1e 1e 93 bc
       -0.20469014 -0.22881165 -0.30703714 -0.017958697
000060 3d e1 6a 3e 06 4c 82 be 17 ca 76 3e 2b 39 8c 3e
       0.22937484 -0.25448626 0.24100529 0.27387366
000070 e4 d8 2b be f0 7b 05 3d 1b 58 82 be 44 d6 85 be
       -0.16781956 0.0325889 -0.25457844 -0.26140034
000080 b6 4d 7a bd 27 10 3c be ee 1f 78 3e 6c 65 b7 be
       -0.061109267 -0.18365537 0.2423093 -0.35819566
000090 49 52 2b 3d 0c 06 a5 3d 0b 9f 9d be bf 88 b7 be
       0.04182652 0.08057794 -0.30785403 -0.35846516
0000a0 a4 9c e7 be 6e 2d 45 bd c7 e2 d9 be 5a 30 5e be
       -0.45236695 -0.04813903 -0.4255583 -0.21698132
0000b0 78 56 95 3e ea 23 41 3e 18 69 b4 3c ee e3 32 be
       0.29167533 0.18861356 0.022022769 -0.17469761
0000c0 45 c9 92 3e ce 58 7b be b7 a5 04 bf d5 30 82 3e
       0.2866918 -0.24545595 -0.5181536 0.2542788
0000d0 8e 6a 33 be e6 bb ef 3d 01 40 37 be c6 42 bf be
       -0.17521116 0.11705761 -0.1789551 -0.37355632
0000e0 26 2f f7 3d 77 67 7c 3e dc b0 41 3e 97 b4 a0 3d
       0.1206954 0.24648844 0.18915123 0.07846945
0000f0 c0 24 8c be bf 0c 90 3c 73 d1 77 3e 13 a6 1b 3e
       -0.27371788 0.017584203 0.24200992 0.15200071
000100 e1 5c 31 3d a8 3b 92 3d 25 9b aa 3d ca bf 83 3d
       0.043301467 0.07140285 0.08330373 0.06433065
000110 48 c0 a5 bd 0a 4f 8b be d1 65 1d 3e a1 07 45 3e
       -0.08093315 -0.2720874 0.15370871 0.19241191
000120 50 97 90 be ad 86 64 bd 83 34 24 be c7 54 ab be
       -0.28240442 -0.0557925 -0.16035657 -0.33463117
000130 fb 76 37 3d dc 6a 7d be 06 2d c2 bd 1c 39 de 3c
       0.044791203 -0.24747795 -0.09481244 0.027126841
000140 4c c8 67 be a0 79 c7 bd 06 10 58 3d 17 04 4d 3d
       -0.22635001 -0.09739995 0.052749656 0.05005273
000150 2e 40 13 3e 2d 5e cd be dc b5 62 be 26 6a 32 3d
       0.14379951 -0.40110913 -0.22139686 0.043558262
000160 69 01 0d 3e 29 ea a7 be 84 d4 63 3e 68 fb ab 3d
       0.13770069 -0.32795838 0.22249037 0.08397561
000170 94 67 81 be e7 ae c2 3d 22 a9 72 be 7d 33 99 be
       -0.25274336 0.09506016 -0.23697332 -0.29922095
000180 2c c5 1d 3d ce 93 81 be b5 97 e5 3d 54 ba f6 3d
       0.038518116 -0.2530808 0.112105764 0.12047258
000190 bc 23 95 3d 3b c5 1e 3e c4 fe e9 bb 85 34 2d be
       0.072822064 0.15504925 -0.007140966 -0.16914566
0001a0 65 3c 85 be 22 62 2e 3e 7f f2 22 be 37 d9 10 3d
       -0.2602264 0.17029622 -0.15912817 0.035363402
0001b0 a8 74 5d 3e e5 72 9e 3d 38 48 d8 3c 63 b4 62 bd
       0.21626532 0.07736758 0.026401624 -0.05534781
0001c0 a4 fc 2d bd 28 49 29 3d dd 67 92 bc d4 e8 20 3e
       -0.042477265 0.041329533 -0.017871791 0.15713817
0001d0 31 42 fd bc de 45 a4 bd bb 4b 5b be c2 03 5f 3d
       -0.030915352 -0.080211386 -0.21415608 0.054446943
0001e0 3f 5f 13 3e 3e c8 14 3e 50 1b 31 3e ab a7 7d 3e
       0.14391802 0.14529511 0.17295575 0.24770992
0001f0 4d 9f aa be fe c6 0a be bf c6 51 3e ed 79 32 3e
       -0.33324662 -0.13552472 0.20485972 0.17429323
000200 7e b2 22 bf 1d 71 ca be 37 4d 0e bf 04 0a df be
       -0.6355361 -0.39539424 -0.5558657 -0.4356233
000210 f9 93 76 3c 9e 09 11 3e 9a 27 a5 3e 0e a8 89 be
       0.015049928 0.14163825 0.32256776 -0.26886028
000220 d3 17 36 3e 54 d1 08 3d 18 d8 b4 3e f2 39 57 3e
       0.17782526 0.033402756 0.35321116 0.21018198
000230 7b c4 5a 3e a0 eb f6 3e cb 1b 39 3e cf d6 e1 bd
       0.21364014 0.48226643 0.18077008 -0.110272996
000240 8b 00 26 be 59 07 d7 3e 5d 7a 91 bd 86 de 5b 3d
       -0.16211145 0.41997793 -0.07103417 0.05367901
000250 61 55 ab be 27 ff 75 bd ca 15 8b 3e 93 b9 30 38
       -0.33463576 -0.060057785 0.2716506 4.21345e-05
000260 1e eb 8f 3e fb ea 6e 3d da 6a 3e 3d 22 82 98 bd
       0.28109068 0.058329564 0.04648862 -0.07446696
000270 8f bb 69 3e 8a 51 a4 3e 5e 79 6c 3e 76 58 92 3e
       0.22825454 0.3209346 0.23093173 0.28583115
000280 22 c6 e5 be 58 34 82 3e cf f5 3f be 82 d4 a8 be
       -0.44877726 0.2543056 -0.18746112 -0.3297463
000290 e4 84 11 bf 40 55 0d bf 8c 7d 40 be 42 73 8a 3e
       -0.568434 -0.55208206 -0.18797892 0.2704106
0002a0 4f bb 9a bd 92 0d 92 be e8 8c 96 bd 38 8a b4 be
       -0.075552575 -0.28525978 -0.073510945 -0.35261703
0002b0 63 2f 08 be 2e 5b af 3e 1c f8 c9 bc b6 5f aa 3e
       -0.13299327 0.34249252 -0.02465444 0.33276147
0002c0 41 3b af 3e 88 8a 6b be 49 7e 1a be dc 20 d5 bd
       0.34224895 -0.23002064 -0.15087236 -0.10406658
0002d0 9b 45 54 3e 05 9e 2d 3e 32 df c4 bd 51 02 02 bf
       0.20729677 0.16954811 -0.096128836 -0.50784785
0002e0 c4 0b e1 be 82 fc 63 be 74 2e 96 be bb 02 40 bc
       -0.4395429 -0.22264293 -0.29332316 -0.011719401
0002f0 50 22 25 3e 87 2e 88 3e 99 2c d7 bd 97 4d ca be
       0.1612637 0.26597998 -0.10506553 -0.3951232
000300 45 19 30 3d 2a 2d a7 3d 7b 09 5f 3e 8f c4 25 3e
       0.04299285 0.08162911 0.2178096 0.16188262
000310 eb 11 38 3e d1 21 f8 3d c8 e6 ef be 19 e3 29 bd
       0.17975585 0.12115825 -0.4685576 -0.041476343
000320 8b d3 a3 be b7 f3 cc 3d 81 19 32 3e 65 ce 0a 3d
       -0.31997332 0.100074224 0.17392541 0.03388824
000330 d2 17 34 3e 7e a7 96 be be e9 cc be f0 2f 9c be
       0.17587212 -0.2942466 -0.4002208 -0.30505323
000340 85 be b4 bb 4b db d2 bc 54 14 97 3e 3e 75 8f be
       -0.0055158758 -0.025739333 0.29507697 -0.28019136
000350 eb ba 8d 3e f6 3c fe bb 40 c0 80 be 1b fb e5 bd
       0.2768167 -0.007758732 -0.25146675 -0.11229535
000360 d1 f0 0d bf 91 4a 8d 3e 77 e1 40 be 8c 0c af be
       -0.5544558 0.27595952 -0.18836008 -0.3418926
000370 fe 78 b5 be 8a 91 17 3d eb 2d 4c be 5a 12 bd be
       -0.35443872 0.03700403 -0.19939391 -0.36928064
000380 10 13 a3 3d a2 9f 30 3d 19 1b c4 be b8 3c 61 3e
       0.0796262 0.043120988 -0.38301924 0.21995819
000390 00 67 7b 3d e6 b6 2f 3e 26 38 98 3e 81 c6 a9 be
       0.061377525 0.17159614 0.29730338 -0.3315926
0003a0 3a 01 8e 3e a9 2b 13 3e 43 99 da 3d 40 8b ae 3e
       0.2773531 0.14372124 0.106737636 0.34090614
0003b0 f8 96 d0 be 08 79 da be e8 b3 da bd e1 ba b2 be
       -0.4074018 -0.42670465 -0.10678846 -0.34908202
0003c0 09 f2 ee be fb c0 09 3e 69 52 81 3e b9 15 0d be
       -0.46669033 0.13452522 0.25258186 -0.13777818
0003d0 e0 54 ce bd 63 99 b8 be c0 a0 3d 3e 57 c2 5e 3e
       -0.10074782 -0.36054525 0.18518353 0.21753822
0003e0 fd 5a 92 3d 67 51 a8 be cc 8b 5a 3b ba 3e 4e be
       0.07146261 -0.32874605 0.0033347486 -0.20141116
0003f0 ac 28 bc bd 6a a9 cf be 9d 0c 1a bd 99 f3 26 3e
       -0.09187445 -0.4055894 -0.037609685 0.16303863

fc3.bias f4 [5]
000000 ce aa 16 bb 69 dc d5 39 fa 01 08 be b2 58 42 3d
       -0.002298999 0.00040790744 -0.13282004 0.047447868
000010 d3 95 af bb
       -0.0053584366
