model/lingclusive_model.pth (torch, 76844 bytes, 6 tensors)

fc1.weight f4 [128, 63]
000000 a6 8f 1b bd 46 b1 11 bc 2e 68 ba bb 8e d2 87 3d
       -0.03797879 -0.008892363 -0.0056886887 0.06631957
000010 db 44 bd 3d 02 0a a7 3d 77 9c 86 bd 66 67 92 bd
       0.09241649 0.08156206 -0.06572812 -0.07148628
000020 0e 96 6b be 4e eb 00 3e c8 8d fd 3c 27 bf 03 bd
       -0.2300646 0.12589762 0.030951396 -0.03216472
000030 09 a9 11 be e9 33 54 3e bc b9 4d 3d 51 a3 c8 3d
       -0.14224638 0.20722927 0.05022596 0.09796775
000040 65 a6 ca bd 9b 45 f7 3d 9a b0 88 3c 5c 18 e2 ba
       -0.098950185 0.12073823 0.016685773 -0.0017249691
000050 29 fa 9f 3d 65 d9 14 be 80 75 50 bd a0 60 03 bd
       0.07811386 -0.14536054 -0.050893307 -0.03207457
000060 99 08 69 3d 70 db 71 3b f6 3f 97 bd c5 e9 63 3e
       0.056892965 0.0036904477 -0.073852465 0.22257145
000070 1e 66 a4 bc 24 0b 0e be 33 ed 0e 3e 8a b7 9c 3e
       -0.020068225 -0.13871437 0.13957672 0.3060878
000080 67 36 96 3e 45 e1 11 3f 7c 69 13 3d 77 18 18 3e
       0.2933838 0.5698436 0.03598927 0.14853083
000090 34 0b 41 3e e4 c1 29 3d 4c d9 bf bd 7c d2 6d be
       0.1885193 0.041444674 -0.09367618 -0.23224825
0000a0 8f da 09 bf 3c ea 3e bf 0a 0d 99 bf c4 01 e3 be
       -0.5384912 -0.74576163 -1.1957104 -0.44337285
0000b0 c5 76 a3 be 41 34 bf be 21 16 30 be 5e 31 6f bf
       -0.3192655 -0.37344554 -0.17195942 -0.93434703
0000c0 32 87 76 be 8c 66 74 3d 70 67 8f 3e c8 83 d4 be
       -0.2407501 0.05966811 0.28008604 -0.4150679
0000d0 6c 13 04 bf 8b f9 2d be 8b b0 a6 bd 79 c5 ea bd
       -0.51592135 -0.16989724 -0.08139142 -0.11463446
0000e0 ab 6d 16 bc 94 c8 88 3c c1 49 92 3e d0 91 6b 3e
       -0.00918142 0.016697206 0.28571895 0.23004842
0000f0 e8 21 2b 3e 8d 76 01 3d 34 b5 a0 3d 20 4a 8e 3d
       0.16712153 0.0316072 0.07847062 0.06947732
000100 ed 9c 59 be b0 5b 50 be 16 54 d4 be fa f5 28 be
       -0.21251269 -0.20347476 -0.41470402 -0.16500083
000110 6c df f2 bd 87 e1 07 be 72 51 02 be 2b af 4c be
       -0.118590206 -0.13269626 -0.12726381 -0.19988696
000120 f3 96 90 3a 2e 01 03 3e 45 eb 43 3d ad 1e 94 bd
       0.0011031314 0.12793419 0.047831792 -0.072324134
000130 2a 9c 56 3e 42 6e 89 3e ae b2 84 3d a9 29 f1 3d
       0.2095801 0.26841933 0.06479393 0.11775524
000140 98 1b b9 3e 12 7d 43 3e bc 3a 30 3e 25 df 26 3e
       0.36153865 0.1909068 0.17209905 0.1629606
000150 42 84 b7 be b6 45 51 be f9 61 3b bd 96 61 ff bd
       -0.35843092 -0.20436749 -0.04574773 -0.12469785
000160 c2 2d 2c be ab 48 d8 3d 26 63 74 3e 1a b0 c4 3d
       -0.1681433 0.10560735 0.23865947 0.09603901
000170 7f e9 87 3e 23 ec 42 bd cb 65 a7 3e 52 82 ae 3c
       0.2654533 -0.04758848 0.3269485 0.021302376
000180 0d e5 94 3d 89 8c b9 3d 2c 49 87 3e e2 c5 50 3d
       0.072702505 0.09060008 0.26423013 0.050969966
000190 f5 9a 18 3d 8e 87 10 3e 45 ef d4 3d 9f 9a 61 3d
       0.037257154 0.1411421 0.103971995 0.0550791
0001a0 be a1 d7 bc a0 68 ee 3e 9f a5 ae bd 44 21 10 be
       -0.026322242 0.46564198 -0.085276835 -0.1407519
0001b0 62 f4 b6 bd a2 f7 2e 3d 2f 93 51 bf 3b 92 a8 be
       -0.08933331 0.04271663 -0.8186521 -0.32924065
0001c0 2a 84 cf bd af d2 1c 3e 28 b5 2f bf 40 f3 7e 3d
       -0.1013263 0.15314744 -0.686358 0.0622437
0001d0 00 eb a9 3d 20 d3 a7 bc 37 11 82 be b5 56 85 3e
       0.08296776 -0.020486414 -0.2540376 0.26042715
0001e0 d8 09 51 3e 1d 4b 95 3d 81 36 75 3d e4 d7 e4 3e
       0.20413911 0.07289717 0.059866432 0.4469596
0001f0 19 02 9c 3e 49 ff 96 3e b2 e8 f6 3d 80 b1 d0 3c
       0.3047035 0.29491642 0.12056102 0.025475264
000200 64 28 42 be 39 57 72 be 39 af 93 be 32 7c f3 bc
       -0.1896072 -0.23666085 -0.28844622 -0.029722307
000210 d3 97 d5 bd 9d 50 35 3d 0a 21 4e bd 4e e9 22 3e
       -0.10429349 0.044266332 -0.050324477 0.15909311
000220 7c 11 f7 3d ad 77 04 3d 94 9a a6 bb bc 2a 61 3e
       0.12063882 0.032340694 -0.005084345 0.21988958
000230 ea 3e f4 bb 65 30 81 bd 54 87 b8 3d 41 c5 b4 3d
       -0.007453789 -0.06308059 0.09010187 0.08826686
000240 12 eb 6d 3e a2 8c 06 3d e3 4f 8f bd 17 8e 35 be
       0.23234203 0.03284896 -0.06997659 -0.17729984
000250 d8 49 86 be 84 28 e8 bd b2 ff 84 be f5 7a 0e be
       -0.26228213 -0.11335853 -0.2597633 -0.13914092
000260 c9 2e 47 bd 5e 53 83 3e f6 08 a4 3e bd de d8 3e
       -0.048628602 0.25649542 0.32038087 0.42357436
000270 f0 8b 08 bd fd e3 08 3e 10 b8 97 bd 39 08 2e be
       -0.03333658 0.1336822 -0.07408154 -0.16995324
000280 55 84 cc 3d 29 91 34 3e aa 09 a7 3b 09 82 38 bd
       0.09986178 0.17633499 0.0050975876 -0.045045886
000290 86 de f5 3d c2 86 40 3e 3e ae 49 3e 43 90 9b 3e
       0.120053336 0.18801406 0.19695374 0.303835
0002a0 b9 03 3c 3f f5 4d e2 be 96 00 bf be e2 63 b5 be
       0.7344318 -0.44200101 -0.37305135 -0.35427767
0002b0 82 21 40 be eb bb 25 bf 80 bb da be 78 bb ca bd
       -0.18762782 -0.64739865 -0.42721176 -0.09899038
0002c0 1f 41 37 be 33 87 13 bf cb 00 3c 3d 55 5b 8f 3e
       -0.17895935 -0.5762817 0.045899194 0.27999368
0002d0 fe 9b 4b 3d 5d a4 77 be 9d 04 a3 3e 88 4e 0e 3e
       0.049709313 -0.24183793 0.31839457 0.13897145
0002e0 05 00 b1 bd d5 3b 3c 3e b4 39 58 3e 01 1c 50 3e
       -0.08642582 0.18382199 0.21115762 0.20323183
0002f0 f4 2a 0a 3e ae c9 59 bd d6 82 f6 3d a6 cf 61 bd
       0.13492948 -0.053170852 0.12036674 -0.05512967
000300 ac 4f 50 3d ca 12 37 bd 84 42 26 3d b8 d3 5c 3d
       0.05085723 -0.044695653 0.040590778 0.05391285
000310 95 ce a2 bd b6 8e ae 3d fa 1d 98 bd 12 db ea 3d
       -0.07949559 0.08523314 -0.074275926 0.114675656
000320 d4 90 0a bd 64 5d b0 3d 78 9f ed 3d 76 56 2f bd
       -0.033829525 0.08611563 0.11602682 -0.042807065
000330 86 58 e8 3d 00 5f 82 bd 7c 18 28 3d 39 5f f6 bd
       0.113450095 -0.06365776 0.041038975 -0.12029881
000340 ec ac d9 bd dc 6f c5 bd 18 f5 fa bd c6 45 51 bd
       -0.10628685 -0.09640476 -0.12253779 -0.05109193
000350 d4 62 ca bd cc fa 49 bd 6c 9b 41 3d f8 eb 89 bd
       -0.09882131 -0.049311444 0.047267362 -0.067344606
000360 a6 f0 66 bd 00 45 fa ba 9c dc cb 3d f7 76 8b bd
       -0.056381844 -0.001909405 0.09954187 -0.068098
000370 34 93 7b 3d c8 f9 b7 bd 26 26 f1 bd de a7 ed bd
       0.06141968 -0.08983189 -0.11774854 -0.11604284
000380 f4 19 82 3d f8 8a cf bc b2 15 38 bd 88 03 3f 3d
       0.063526064 -0.02533482 -0.044942565 0.046634227
000390 04 84 a3 3d 83 84 dc bd 96 3b ba bd 5e 43 ad 3d
       0.07984164 -0.10767462 -0.09093396 0.08460115
0003a0 48 02 af 3d 34 10 d0 bc 0d dd c2 bd a8 53 6d bc
       0.08545357 -0.025398351 -0.09514818 -0.014485277
0003b0 1d 9f e0 bd 8e 2d b4 bd f4 f5 a9 3d 08 70 f1 3d
       -0.109678484 -0.08797751 0.08298865 0.117889464
0003c0 40 67 9c bc d6 ec a2 3d 00 75 b9 3c 86 c6 4c bd
       -0.019092202 0.07955329 0.022638798 -0.049994014
0003d0 8d ed 99 bd a0 64 98 bd 6a bd bf 3d e8 df c1 bc
       -0.07516012 -0.07441068 0.093623 -0.023666337
0003e0 40 15 ba bb 8e 61 eb 3d 6f 37 83 bd 88 6e b2 3d
       -0.0056788027 0.114932165 -0.064070575 0.087124884
0003f0 a0 fe b8 be 0a 57 5a be 2f 90 bb be 8f b0 0d bd
       -0.36131763 -0.21322265 -0.3663344 -0.034592208

fc1.bias f4 [128]
000000 c1 e7 65 bc da 6a 01 bd 69 7f 71 be b6 c6 9f bd
       -0.014032305 -0.031596042 -0.2358376 -0.07801573
000010 44 d5 92 3d 7d 4b 8a 3d 94 7a 85 bd 82 e2 93 3e
       0.071695834 0.067526795 -0.065175205 0.2888375
000020 bc f6 f0 3d 9c c5 09 be 2f 77 a8 bd 88 b3 9a 3d
       0.11765811 -0.13454288 -0.082258575 0.07553774
000030 18 ad b1 3c 60 a1 5e be 72 07 00 3e 55 70 d5 3d
       0.021688983 -0.21741247 0.1250284 0.10421816
000040 36 84 24 3d 54 55 52 3c 84 40 cd 3d 14 85 9e be
       0.04016515 0.012837727 0.10022071 -0.30960906
000050 a3 f0 b7 3d 47 4c f8 bd 24 b7 15 3e 5b f1 e2 3c
       0.08981445 -0.12123924 0.14620644 0.027702978
000060 f3 dd ee bd 2f f4 3e bc fc 70 ed bd 14 16 90 3e
       -0.11663427 -0.011654898 -0.11593816 0.28141844
000070 97 60 d8 bd fc 62 1b be 38 64 da bc d4 f1 8d 3e
       -0.10565298 -0.15174478 -0.026659116 0.27723563
000080 b1 ee b1 bd b8 88 f0 bd 4b c3 76 bd a4 61 35 3d
       -0.08688105 -0.11744827 -0.06024484 0.04428257
000090 9c 7a 26 bd a6 db 8f 3d 34 c1 16 bb 54 1c f3 3d
       -0.040644273 0.070243165 -0.0023003342 0.118706375
0000a0 f4 30 36 bd 28 1c 66 bc 54 4e 7d 3e fa b1 a7 bd
       -0.04448028 -0.014044799 0.24736911 -0.08188243
0000b0 e6 e1 c2 3d 76 71 1c 3e a1 00 0f be e9 b0 46 bc
       0.09515743 0.15277657 -0.13965084 -0.01212714
0000c0 30 a7 a8 bd 58 3b 49 bd a3 7e d1 bd aa 22 9f be
       -0.082350135 -0.04912886 -0.10229232 -0.31081134
0000d0 e0 17 45 3c 10 e2 8c 3d c2 7a df bd 70 a8 19 3e
       0.012029618 0.068790555 -0.10912086 0.1500566
0000e0 00 e4 4a 3b ad dd 01 3e 5c 1d b8 bc dc 8b 45 3d
       0.0030958652 0.12682219 -0.022474937 0.048229083
0000f0 98 9f 7c 3d df 86 a5 3d 60 fb 23 3e 1a 84 02 be
       0.061675638 0.08082365 0.1601386 -0.12745705
000100 30 4e 84 3e 4b 7f 58 3d 2e a8 ab bd f1 b1 ed 3c
       0.25840902 0.05285577 -0.08381687 0.029015513
000110 b6 88 44 be c2 66 1f bd 53 98 b1 bd 64 d3 eb bd
       -0.19192776 -0.038916357 -0.08671632 -0.11514929
000120 1d ed 6d 3e 2c 58 32 be ef c2 00 be 15 84 ab bd
       0.23234983 -0.17416447 -0.12574361 -0.08374802
000130 f5 0d e3 bd e4 3f a8 bc 2b b4 03 be 2a bf 90 bd
       -0.110866465 -0.020538278 -0.12861697 -0.07067712
000140 2f 1c 71 be 54 f4 eb bc 39 c6 91 be 9c 54 46 be
       -0.23545907 -0.028803028 -0.28471544 -0.19368213
000150 38 21 c4 3c a5 0f dd bd 18 a5 fc 3c 20 76 0a 3b
       0.023941621 -0.107939996 0.030840442 0.0021127537
000160 c0 7e fc 3c b3 f9 4b 3d f8 9b 10 bc 6f 9f 86 3d
       0.030822158 0.04979868 -0.008826248 0.06573378
000170 f7 1a cd 3e 14 87 a7 3d ad 0c 23 3e 29 75 8b be
       0.40059635 0.08180061 0.15922804 -0.27237824
000180 3f 1f ae bd ea 79 4e 3e ea c7 71 bd 40 e7 d4 bd
       -0.085020535 0.20163694 -0.059028544 -0.1039567
000190 92 7a 28 3e a2 9e 7e be 91 35 42 3e 7d ec 35 bc
       0.16453007 -0.24865201 0.18965746 -0.0111037465
0001a0 0d db 83 3e 32 a4 28 3e ef 64 f1 3d f1 9b 71 3e
       0.2575306 0.16468886 0.1178683 0.23594643
0001b0 84 3e 45 bd 1a 70 cc 3c 20 d5 0b bd b5 5e d1 3c
       -0.048155323 0.024955798 -0.0341388 0.025557855
0001c0 50 0c 9f 3e d3 47 bd bd 31 2d 91 bd c0 49 3a 3d
       0.3106408 -0.09242215 -0.07088698 0.04548049
0001d0 47 64 2b 3e 24 de 84 3d 23 d1 bb bc e1 cf 3b be
       0.16737472 0.064876825 -0.022926873 -0.18341018
0001e0 67 33 f3 bd 7b a6 e6 3d 11 ab 0f be 79 84 84 3d
       -0.118750386 0.112622224 -0.140301 0.0647058
0001f0 8e e8 f2 bd 33 b1 cb 3c 77 ba e1 3d 86 10 08 3e
       -0.118607625 0.024864769 0.110218935 0.13287553

fc2.weight f4 [64, 128]
000000 dc 3f 86 3c 8f 02 8c be 94 eb ef bd 32 f7 9f bd
       0.016387872 -0.27345702 -0.11714855 -0.07810821
000010 4d 9d 54 be 87 52 3e 3e c8 f9 1a 3f 96 01 8c be
       -0.2076313 0.18586169 0.60537386 -0.2734496
000020 2a ae 8a 3e e8 54 78 3e 77 c6 85 bd 21 6b 28 bd
       0.27086002 0.24251139 -0.06531995 -0.04111779
000030 ac f1 f9 3c e9 b7 6f 3d 2d 68 d5 bd ad a6 6c bd
       0.030510746 0.058525 -0.104202606 -0.057776142
000040 1c 56 c5 be 0f 24 4d be e1 64 b3 3d 2f 61 6c bc
       -0.3854226 -0.20033287 0.087594755 -0.014427467
000050 46 04 3e 3d 6d 1d 05 3e 11 e7 fc 3e 10 5d 8f 3d
       0.046390794 0.12999506 0.4939504 0.07000172
000060 88 33 97 bd 72 82 a9 3d 90 6c 9b bd 60 17 2b 3e
       -0.07382876 0.082768336 -0.07589066 0.16708136
000070 e8 7b b4 3c 06 7d 76 3d e5 79 42 bd 5f 1f 88 3d
       0.02203174 0.060177825 -0.04747953 0.066466086
000080 00 18 43 bd 3b da 86 3d c4 72 85 3e e2 f9 fb bc
       -0.04763031 0.06584593 0.26064122 -0.030758802
000090 c6 b8 3f 3d 0d 75 37 bc 52 33 60 bd 74 7d 90 3c
       0.046807073 -0.011197341 -0.054736443 0.017637946
0000a0 e3 5b af 3d a2 be 36 be 98 83 29 bf f5 88 83 3c
       0.08562448 -0.17846158 -0.6621642 0.016056517
0000b0 fa d9 75 3d 74 f6 7c be 49 0f 74 3e 98 f3 35 bc
       0.06002233 -0.2470339 0.23833956 -0.011105441
0000c0 b0 69 65 3c b5 8d 96 3d 64 e0 04 3d 81 da 4f 3e
       0.014002249 0.07351247 0.032440558 0.20298196
0000d0 1f b7 52 bd ca f4 44 3d 49 a7 1d bd 78 ce 4e be
       -0.05144417 0.04808501 -0.038489614 -0.20195949
0000e0 30 fb 08 bc 93 09 03 3f 6f b0 bc 3e 84 ee 8d 3e
       -0.008360669 0.51186484 0.36853358 0.27721035
0000f0 b0 13 73 bc 3d a0 b6 bd 29 07 5c 3e a5 2a 17 3d
       -0.014836237 -0.08917282 0.21487106 0.036905903
000100 83 e6 bd bd 21 64 54 bd 36 1e 16 3d 38 68 84 3d
       -0.09272482 -0.051853303 0.036649905 0.06465191
000110 dc a4 84 3e b8 e3 2d bd 93 10 b6 3d 00 e9 62 bc
       0.25907028 -0.042453498 0.0888988 -0.013849497
000120 47 16 9c 3d 4d 1a 49 be 5a 23 a6 bd c0 6a 9c 3e
       0.076214366 -0.19638939 -0.081122115 0.30550194
000130 75 ad 87 3d 2e c7 26 3d ba f7 01 3c 3d 2b 0a bd
       0.06624881 0.040717296 0.007932598 -0.03373264
000140 5e ce a7 be 10 40 a9 bb 3c de 66 bd 03 d7 e6 3d
       -0.32774633 -0.0051651075 -0.056364283 0.11271479
000150 8d 45 35 3d 7a 06 61 bd d0 d9 c0 3b 74 f1 8d bd
       0.044255782 -0.054937817 0.0058853403 -0.06930819
000160 4b e3 90 3d 66 d2 9c 3c e0 4d 31 3c 49 f1 61 3d
       0.07074603 0.019143295 0.0108217895 0.055161748
000170 de 6d 27 be ee d1 17 3d 8d 7a 14 bf ad da b2 3e
       -0.16350505 0.03706544 -0.579995 0.3493246
000180 9e f9 06 be 42 e1 f0 be 70 56 ed 3c 5f e1 84 3d
       -0.13181159 -0.47046858 0.02897188 0.064882986
000190 06 48 fa 3d 93 e8 f7 3d 4b 54 06 3c 76 a8 54 be
       0.12220769 0.12104907 0.008198808 -0.20767388
0001a0 c9 20 77 3d f3 1b 17 bd ba 57 41 bf c8 2d d2 3e
       0.060334 -0.03689189 -0.75524485 0.41050553
0001b0 d5 61 0c 3e 69 69 21 be 61 55 af 3d 9a 3b 15 3e
       0.13709195 -0.15762867 0.085612066 0.14573517
0001c0 03 52 a7 bb e2 f9 ac bd 3a 86 6c bd a0 7a 22 3b
       -0.005106212 -0.08446099 -0.057745196 0.0024792328
0001d0 30 10 49 be 87 e9 cd bc 44 f1 90 bd b2 ad b7 3e
       -0.19635081 -0.025135769 -0.07077268 0.35874707
0001e0 49 d2 ad 3d 42 2d 11 3f d3 c6 55 3e 12 7d fa 3c
       0.08487374 0.5670968 0.20876627 0.030577216
0001f0 a8 60 5f bc e6 f2 d6 3d 68 27 66 bd 7a 27 34 3e
       -0.0136338845 0.10495548 -0.056189924 0.17593184
000200 24 e0 51 3e d8 8f 0d bc 05 f8 c5 bc 00 df 98 bb
       0.20495659 -0.008640252 -0.024166116 -0.0046652555
000210 07 9f 35 3f 46 86 de bb 27 88 6a 3d 82 06 6b 3c
       0.7094578 -0.006790909 0.05725875 0.014344813
000220 27 b4 e8 3e ac 53 21 3e 73 5e 18 bd 8c 8b d6 bc
       0.45449945 0.15754575 -0.03719945 -0.026189588
000230 19 c2 81 bd c1 7a 1f bd fd 47 46 bb de 99 32 3d
       -0.06335849 -0.038935427 -0.003025531 0.04360377
000240 a4 d2 f0 3d 0e 76 e0 bd 71 9a 0d 3d 39 fe 75 3d
       0.117589265 -0.10960017 0.034571115 0.0600569
000250 47 c1 71 bd d4 82 d5 bd e9 be 4a 3e 15 8b 1c 3c
       -0.059022214 -0.10425344 0.19799389 0.009554644
000260 e3 be b2 3d 21 ac 10 be bf e7 ae bd 7b 85 a4 3e
       0.08727815 -0.14128162 -0.08540296 0.32133088
000270 f6 4d 89 bd a2 99 7b 3c 34 35 8f 3c ef cb 38 3c
       -0.06704323 0.015356453 0.017481424 0.01127909
000280 43 2c 2a bc 59 da ac 3d c0 47 60 be d2 be 72 bd
       -0.010386529 0.08440084 -0.2190237 -0.05926401
000290 50 9f 59 bc be 0d 78 bd 48 92 5d 3d 4f b5 01 bd
       -0.013282612 -0.06055998 0.054094583 -0.03166705
0002a0 b8 17 9f bd ff 90 fd 3e 86 6b 2b be 7c 65 d8 3c
       -0.07768196 0.49524686 -0.16740236 0.026415579
0002b0 a3 e5 93 3d 18 06 66 3c 0a 70 b7 bd 31 6e bb bd
       0.07221534 0.014039539 -0.08956917 -0.09151877
0002c0 d0 fb e8 bc d1 f1 3e bd f1 cd 79 bd 8e f6 b7 bc
       -0.028440386 -0.046617333 -0.060987417 -0.022456434
0002d0 00 03 e5 3a a8 d3 50 bc 5f b7 a0 3c 77 c4 85 be
       0.0017472208 -0.012745775 0.019618688 -0.26126453
0002e0 b8 14 5c bc 8d a1 32 3e fb ad 69 be 9f a7 a4 3e
       -0.013432674 0.17444439 -0.22820275 0.32159135
0002f0 78 6d 4f bc bd 6b ae 3c 8c ef 23 3e 14 2b 2f 3f
       -0.012660377 0.021291608 0.16009349 0.68425107
000300 ce f6 d1 3e 12 44 9c bd d8 3f 1b bd 88 d6 6f 3d
       0.4100861 -0.07630171 -0.037902683 0.058554202
000310 d2 17 b1 bd 18 47 02 bc 79 c6 37 bf cc 2a a9 bd
       -0.086471215 -0.00795152 -0.7178722 -0.08260116
000320 5d eb e4 3e eb 0e 6b 3e d4 68 6e bd a6 a3 f9 3c
       0.44710818 0.2295491 -0.05820544 0.030473541
000330 2c 79 b7 3c e4 a0 a5 bd 6b 03 06 3d 93 97 35 bd
       0.022396646 -0.08087328 0.032718103 -0.044334006
000340 52 7a 55 3e 87 69 80 bd 33 db 87 3d d0 0c 9a 3d
       0.20847443 -0.06270128 0.06633606 0.07521975
000350 20 09 03 3f 9a c1 e1 bc ea b3 61 3d 01 a4 28 3d
       0.511858 -0.027558137 0.05510322 0.04117203
000360 d0 46 23 bc 4d a6 5b 3e f8 23 29 bd c7 0e 1d 3d
       -0.0099656135 0.21450157 -0.041294068 0.03834417
000370 ae de 3c be c2 35 35 3d cf 24 0d be 07 59 99 be
       -0.1844432 0.04424072 -0.13783573 -0.29950735
000380 af bf 67 bc bd 6f 91 bd d5 62 97 3d 00 b3 6e ba
       -0.014144822 -0.071013905 0.073918976 -0.00091056526
000390 98 cd 03 3f 5e cb 12 3f 9d 3f 5e 3e b1 0a b8 3c
       0.51485586 0.57341564 0.21703954 0.022466036
0003a0 39 09 1c 3f 5a b4 96 bd e2 48 cf bc c9 bf 51 3d
       0.6095157 -0.07358618 -0.025303308 0.05120829
0003b0 c0 c0 b2 be 30 a3 66 bd a0 58 18 bb 02 2a ab 3e
       -0.34912682 -0.05630797 -0.0023246184 0.33430487
0003c0 cb 93 a9 3e 98 4c 65 bc 90 b8 58 bc 26 46 53 3d
       0.3312057 -0.013995312 -0.013227597 0.05158057
0003d0 48 ad 8d 3d 8c bf ad 3d f7 97 50 3d 13 07 bf bd
       0.069178164 0.084838 0.050926175 -0.09327521
0003e0 74 91 a1 bc 82 bb e5 bc c9 aa e0 ba 41 9b 85 3d
       -0.019722678 -0.028043512 -0.0017140742 0.06523753
0003f0 3d 60 9b 3d df 8f e4 be 93 86 67 bd f9 3a 14 3e
       0.07586715 -0.44641015 -0.056524824 0.14475621

fc2.bias f4 [64]
000000 b2 58 28 3e 86 8b c1 bd 76 de fc 3d 94 00 c9 ba
       0.16440085 -0.0945044 0.123471186 -0.0015335255
000010 b5 1e ac 3e 5a a9 e2 3e c9 02 87 bd 8f ee f8 3d
       0.33617178 0.4426983 -0.06592328 0.121548764
000020 00 9f 06 3e 55 cf 15 bd b5 85 57 bc 44 9c 16 3c
       0.13146591 -0.03657468 -0.013154437 0.00919253
000030 24 0b a6 bd 3a 76 e9 3d be c2 c3 3d 15 51 36 3d
       -0.08107594 0.11399503 0.095586285 0.04451092
000040 3c 1b 3d 3e b3 51 d3 bd 9c 68 23 3e d9 0a 6b 3e
       0.1846742 -0.10318317 0.15957874 0.22953357
000050 5b a3 11 3e 7b 59 8c be 3f a8 0b 3e 2c f9 97 3e
       0.14222471 -0.27412018 0.136384 0.2968229
000060 46 bc 9c 3d 4d 42 d8 3d e0 b9 d9 3b 0c 50 01 be
       0.07653098 0.10559521 0.0066444725 -0.12628192
000070 51 8b 1b bd 59 46 03 3e df 16 10 3e a8 ef c4 3b
       -0.03797466 0.12819804 0.14071225 0.0060100146
000080 a1 33 4a 3e 63 29 16 be 8e 10 0b be f2 3e be bd
       0.19746257 -0.14664225 -0.13580534 -0.092893496
000090 43 d2 8b 3b 2a 78 e6 3d 02 39 8f bc 81 bd c9 3c
       0.0042670085 0.11253388 -0.017483238 0.024626495
0000a0 c6 18 9b bd e5 8b 13 bc fa e1 d0 3d ba cb 24 be
       -0.075730845 -0.009005521 0.101993516 -0.1609334
0000b0 4c 51 1d 3e 7a 06 ea 3d 88 88 52 bd 2e fd ca 3d
       0.15363044 0.114270166 -0.051399738 0.099115714
0000c0 35 5a f8 3d f8 9c 6a 3e 16 b0 aa 3d 7b b3 d5 bd
       0.121265806 0.22911441 0.08334367 -0.10434624
0000d0 88 e1 fa 3d 5d b3 3b 3e 69 ab 9d 3d 5d 23 4b 3c
       0.12250048 0.1833014 0.076987095 0.012398568
0000e0 fd a0 fc 3d 5b c3 5e 3d f5 2d 21 3e 2d 7b 33 3d
       0.123353936 0.054385524 0.15740187 0.04381864
0000f0 69 5c cf 3d ee 5d 15 3e 48 21 8e 3d ae 2a 75 3e
       0.10125048 0.14586613 0.06939942 0.23942062

fc3.weight f4 [32, 64]
000000 e7 ac 02 bf 57 e7 c3 be f9 6e 0a bf ab d7 1b be
       -0.5104508 -0.38262436 -0.5407558 -0.1521899
000010 fd 3e 18 3e de 05 47 3e 2a 18 cd bd a2 f6 fa 3d
       0.14867778 0.19435832 -0.100143746 0.12254073
000020 02 f1 2f be 78 84 f6 3d 08 77 cd 3d 17 3c 3b 3e
       -0.17181781 0.12036985 0.10032469 0.18284641
000030 81 54 7e bd f0 22 ff bd 06 51 07 3d cd 04 aa be
       -0.062092308 -0.12457836 0.033036254 -0.33206788
000040 d4 ee 9e bd 9f 86 aa bd d1 3a 14 bf 95 c0 8f 3e
       -0.077603966 -0.08326458 -0.57902247 0.28076616
000050 46 f9 ae bd dd 5e 25 3c 34 cf 33 be bb 3f 4e 3e
       -0.08543639 0.010093418 -0.1755951 0.20141499
000060 49 6a eb be bc 59 df 3d c5 b0 eb bc 3a 59 15 3e
       -0.45979527 0.10905787 -0.028770814 0.14584818
000070 24 79 a9 3d 5e 91 43 3e ed 60 56 be d3 12 87 3d
       0.08275059 0.19098422 -0.20935412 0.06595387
000080 44 4d 0d bf b1 6e 84 3d 85 db 3c bf 69 30 98 be
       -0.55196023 0.06466425 -0.7377246 -0.29724434
000090 6e 33 46 3e fe fc 24 bf 07 1f f9 bd ed 44 ef be
       0.19355556 -0.64448535 -0.12164121 -0.46732274
0000a0 f1 fd f3 be 1e 78 61 3e 51 13 68 3d 7e c2 c6 3d
       -0.4765468 0.22018477 0.056659047 0.09705065
0000b0 4e b5 bd be 0f 71 59 3e 11 2b 1c bf 10 58 80 3d
       -0.37052387 0.21234535 -0.61003214 0.062667966
0000c0 6e 8e 27 3e 25 ac a8 3d 5b e8 f7 be f0 7e ed 3c
       0.16362926 0.08235959 -0.4841946 0.028991193
0000d0 34 32 a4 3c 08 43 85 be 9f a4 14 bf 1b 2e 00 bf
       0.02004347 -0.26027703 -0.5806369 -0.5007035
0000e0 51 c5 c8 3d d3 b6 21 bd 1e d6 c6 3d 8a 0e 1d 3e
       0.0980326 -0.039480995 0.09708808 0.15337577
0000f0 fd d4 8e be 49 77 34 be 4d 86 41 3e ca e6 b8 3d
       -0.27896872 -0.17623629 0.18898888 0.090283945
000100 10 47 54 3e 48 be ac bd b0 19 de 3e 3d bb de be
       0.20730233 -0.08434731 0.43378973 -0.43502226
000110 60 a5 42 3e 0a f5 14 b9 ce 62 dc bf bd 7d c5 3c
       0.19008398 -0.00014205664 -1.7217653 0.024107808
000120 b6 53 0e 3e df 0c d7 be 29 58 51 bf cc c9 70 bf
       0.1389912 -0.42002007 -0.81775147 -0.9405792
000130 c7 e9 e4 bd 64 3a 8d 3e 5c bd 88 bf 1a 9b a1 bf
       -0.11177402 0.2758361 -1.0682788 -1.2625458
000140 d6 96 7d bf 1b 5e 16 bf 7e e0 28 3e 82 7b 1d bf
       -0.9905828 -0.58737344 0.16491887 -0.6151658
000150 49 4a 0a bb 35 4e 56 bf 27 37 11 3e 9f 8c 7a bb
       -0.0021101406 -0.83713084 0.14181195 -0.003823079
000160 c9 e1 fd be 16 14 eb bf 8e d0 e7 be 80 88 9a bf
       -0.49586323 -1.8365505 -0.45276302 -1.2072906
000170 98 35 8c bf 56 c2 2d 3e 0f a0 49 bf f2 25 de be
       -1.0953856 0.16968665 -0.78759855 -0.43388325
000180 bd c1 33 3e 97 6d 3c bf 0f e2 a1 be 46 9b 7c 3d
       0.17554374 -0.7360472 -0.31617782 0.061671518
000190 62 a2 77 bf a9 94 45 3e e1 47 29 3e 16 6f 60 bb
       -0.9673215 0.1929499 0.16531326 -0.00342459
0001a0 e9 dd 3f 3e e7 6e b7 bd 22 f5 85 bf d9 21 36 bf
       0.18736996 -0.089567 -1.0465434 -0.711454
0001b0 3f c9 52 3e 51 49 77 bf dd b6 76 3d e2 57 0d 3d
       0.20584582 -0.96596247 0.060232986 0.03450764
0001c0 db 8b a0 3d 96 ae 82 3d 1b 77 3a 3e 53 16 b0 bf
       0.07839175 0.06380956 0.18209498 -1.3756813
0001d0 4a ff 3a bf 43 5a 92 3e 5c d5 bf 3e 43 cd 04 3e
       -0.7304579 0.2858449 0.37467468 0.12968926
0001e0 8e 69 3a 3e 3e 10 c3 be ad 57 78 be d6 15 89 bf
       0.18204328 -0.3809833 -0.24252196 -1.0709789
0001f0 6d 25 7a 3e 1b 53 85 be cb a7 a9 bf e3 cb c6 3e
       0.2442834 -0.26039967 -1.3254331 0.38827428
000200 b1 88 88 bf 8e 43 38 3e 20 99 80 3e cc 40 27 3e
       -1.0666715 0.1799452 0.25116825 0.16333312
000210 e7 c1 2f bf bf a9 9d be b8 ab 0b 3d da 70 e3 bc
       -0.68655246 -0.30793568 0.03409931 -0.027763773
000220 0f 66 c2 be c4 50 27 3e 15 ab 49 3e e0 0f d2 3d
       -0.3796849 0.16339403 0.19694169 0.10256934
000230 99 60 86 3e b8 6b 63 3e 56 b8 19 bf ec 5f 71 3d
       0.26245573 0.2220906 -0.600469 0.05892937
000240 2a 02 04 be c2 58 08 3d aa 42 95 be 35 64 81 bf
       -0.1289145 0.03328777 -0.29152423 -1.0108706
000250 1b 4b a0 bd 15 20 3a 3e 29 c5 09 be 8a 74 82 be
       -0.07826825 0.18176301 -0.13454117 -0.25479537
000260 2e a0 55 3e 35 bc 39 3e d3 8a 5c bf 3a 2b 85 3d
       0.20861885 0.18138202 -0.8614933 0.065023854
000270 e2 be 13 3d d1 e7 9a bd a3 a9 4f 3e df 48 04 3e
       0.036070712 -0.07563747 0.20279555 0.12918423
000280 c5 9f 4e bf 63 f9 34 3d d3 39 97 3e 55 bd 8d 3d
       -0.8071254 0.044183146 0.29536304 0.06920878
000290 77 26 96 3e 59 49 d8 be 3c 39 1e 3e ec d9 39 bf
       0.2932622 -0.4224346 0.1545152 -0.7259815
0002a0 cb 55 22 3e 7c a5 fa bd 80 df fb bd ac 51 d5 3d
       0.1585304 -0.12238595 -0.122984886 0.10415968
0002b0 95 ca 0f be 83 06 47 be f7 f6 8f bd 81 55 11 3e
       -0.14042123 -0.19436078 -0.07029527 0.14192773
0002c0 c0 ac f3 3c ef a8 a8 bf 05 91 11 3e 3a b1 2c 3e
       0.02974546 -1.3176554 0.14215477 0.16864482
0002d0 6c 18 0c bd 38 95 25 3e a0 0e b2 3e e1 db 76 3e
       -0.034202978 0.16170204 0.34776783 0.24107315
0002e0 08 e9 5b be 4f 97 31 3d 81 53 1d 3e c9 24 19 3d
       -0.21475613 0.04335719 0.15363885 0.037388597
0002f0 a9 fd af be d9 16 09 bf a3 fa 79 bd 5b 86 4a 3e
       -0.34373215 -0.5355049 -0.06103004 0.19777815
000300 d8 16 c9 bd c6 c7 8c 3e 2c 89 35 bd 88 c3 70 3e
       -0.0981881 0.27496165 -0.04432027 0.23512089
000310 94 1d 91 be b8 0a 99 be b3 a4 da bd c5 62 90 3c
       -0.2834288 -0.2989099 -0.10675945 0.017625222
000320 ef ee a5 bd c1 63 5a bd 00 a9 11 3e 5d dc 79 3d
       -0.081022136 -0.05331779 0.14224625 0.06100117
000330 8d c8 48 3e 23 5a 52 bd 86 4f fa be 2d cf d5 be
       0.19607754 -0.051355492 -0.48888797 -0.41759625
000340 e5 40 d7 be 12 b4 53 bd ab 68 e2 3d 4a 3a 6c bf
       -0.42041698 -0.0516854 0.1105512 -0.9227644
000350 00 a6 e0 3d 62 09 3c be 82 3d dc 3d cb 1c fa 3d
       0.10969162 -0.18362954 0.10753919 0.12212523
000360 3f c0 a9 bd b4 13 74 be ca aa 90 bd cb 3f 6d be
       -0.08288621 -0.23835641 -0.070638254 -0.23168866
000370 b3 0e ee bd f6 cc 57 3e 4c d6 2e be 66 78 0e 3e
       -0.116238974 0.2107428 -0.17073935 0.13913116
000380 72 38 07 bf 6a 4d 2f bd 6b 43 91 3e a2 83 8e 3e
       -0.52820504 -0.042798437 0.28371748 0.27834803
000390 b0 73 a9 bd e8 de 23 3d d4 37 a4 3e cf 94 63 3d
       -0.08274019 0.0400075 0.32073843 0.055561837
0003a0 99 5c 4f 3e 7f dd 86 3e ea 7f ff be 7f 53 c6 bd
       0.20250167 0.26340863 -0.49902278 -0.09683894
0003b0 b4 3f 16 3e 34 31 d7 be 61 91 b0 be 4e bf a3 3d
       0.14672738 -0.42029727 -0.34485915 0.07995473
0003c0 3a e2 38 3e 76 26 de 3c d6 67 0f 3e 5b bf 2e bd
       0.18055049 0.027117949 0.14004454 -0.04266296
0003d0 5b aa 1b 3e a0 f6 bd 3d c3 fc df 3d 88 0c b8 3d
       0.15201704 0.092755556 0.10936882 0.08986765
0003e0 67 59 ad 3d 53 1f bf be 06 93 a6 bd 34 a3 bd be
       0.08464318 -0.37328586 -0.08133511 -0.37038577
0003f0 f2 c6 c6 bd 55 80 8d be 01 ae a5 be de bd b7 3d
       -0.097059146 -0.27636972 -0.32359317 0.08971761

fc3.bias f4 [32]
000000 63 39 9f bc 36 0c de 3e a2 04 e9 be 97 c0 b0 be
       -0.019436544 0.4336869 -0.45511347 -0.34521934
000010 b7 41 4c 3d 05 de 81 3e f6 d9 ce 3e df 8b 6e 3e
       0.049867358 0.253647 0.40400666 0.23295544
000020 9d 69 20 be 22 a8 ac be 74 3d 75 3e 2c 85 5e 3e
       -0.15665288 -0.33722025 0.23949224 0.21730489
000030 c1 1b d0 be fc 92 a6 be db f7 4c 3e f6 27 a6 be
       -0.40646175 -0.32534015 0.20016424 -0.32452363
000040 b1 50 35 3e d6 bb 18 be b9 12 ea 3e 15 d1 87 3e
       0.17706563 -0.14915404 0.4571741 0.26526704
000050 c9 86 0c 3d 11 78 08 bf 87 39 79 bd bf 02 4f bc
       0.03430823 -0.53308207 -0.060845878 -0.012634932
000060 67 9a 99 3d c1 54 1d 3e 9b e1 d1 3c 82 92 94 3d
       0.07500153 0.15364362 0.025620272 0.07254507
000070 67 72 be 3d fd 72 89 be 42 c9 52 bb 13 a0 c9 3e
       0.09299164 -0.26845542 -0.0032163416 0.3937994
